GCN/best_model.pth (torch, 201787 bytes, 4 tensors)

conv1.bias f4 [64]
00000000: 3de2 62bd dcd6 02bb e9c6 37bd 55be f7bb
00000010: 97bf 47bd 601d 85bd b076 e93d c4a3 5dbd
00000020: a56c a2bc 24c4 083e 19cb 273e c552 50bd
00000030: 0dc4 62bd 5186 cc3d cbc8 76bc a2c4 30bd
00000040: ef75 38bb 0daf 39bd fda4 5ebd 5fea 853d
00000050: 5875 66ba 2c49 21bd fc10 21bd 13e7 07bd
00000060: 02b8 3bbc 0c0d aebd 8c7e 3fbd 3a5f 3dbd
00000070: 6729 9bbc cb8d efbb 3be2 36bd 6d00 91ba
00000080: f167 0dbd 379e d3ba d8cb 80bd 036c 0abd
00000090: 0e78 4bbd 92c0 913d 9602 0abc f975 79bc
000000a0: 24c8 e8b9 7d43 233f 2ee6 8d3e e5f1 03bd
000000b0: a7c4 903c 7dce 9ebc e357 89bc ba66 8bbb
000000c0: 6daf 1abd 942f ecbc 1ce8 44bd bde6 b43c
000000d0: babe 1fbc 9cf9 c8bc 794f e1bc 200d 21bd
000000e0: 1158 12bd 4850 14bd b458 14bd 9965 b23e
000000f0: 340d 4ebd 229a c0bc 1c30 0c3c b33a 65bd
-0.05539154 -0.0019964492 -0.04486743 -0.007560531 -0.0487667 -0.064997435 0.11399591 -0.054111257
-0.019827196 0.13356072 0.1638607 -0.050860185 -0.05536275 0.09986556 -0.015062521 -0.043156274
-0.0028146466 -0.045332957 -0.054356564 0.06538843 -0.00087912893 -0.039376423 -0.03932284 -0.033179354
-0.011457445 -0.08498582 -0.046751544 -0.046233393 -0.01894064 -0.007310604 -0.044649344 -0.0011062749
-0.034522954 -0.0016145174 -0.0628888 -0.033794414 -0.04967504 0.07116808 -0.008423468 -0.015225881
-0.00044399605 0.63774854 0.27714676 -0.03221311 0.017671896 -0.01938557 -0.01676554 -0.0042541893
-0.037764955 -0.02883128 -0.04807292 0.02208268 -0.009750063 -0.024533086 -0.027503716 -0.039319158
-0.035728518 -0.036209375 -0.036217406 0.34843138 -0.05030556 -0.023510996 0.008556392 -0.055964183

conv1.lin.weight f4 [64, 767]
00000000: bd58 2d3b e709 e8bc 2a44 bdbd 8dc3 85bc
00000010: 19d9 75bd 04e2 65bd b4b2 443c 4e3c ebbd
00000020: 2767 12bc 93ae a1bd 4226 b8bd c0cb 80bd
00000030: 8c64 b5bc 3fb1 c1bc ba77 98bc 2e10 b3bd
00000040: 3704 0ebc e6bb afbc b200 833c 38c4 d5bc
00000050: 2335 aabc edb5 5fbd e1c3 6dbc 42a8 b6bc
00000060: 6868 ccbb fada 4bbd b208 bbbc eecc c8bd
00000070: c9b4 0ebc b638 a7bd e29b 5dbb d583 55bd
00000080: dd03 eabd af84 14bd 2107 9c3b 5c8b 1b3b
00000090: afdd 79bd 0072 9b3b d1a2 d0bd 05d0 9b3c
000000a0: 3c0e 9bbd 02a1 e8bd 6b52 27bd ce6d bbbd
000000b0: c08d cebc ca45 ccbd c62f b1bb 7186 b9bc
000000c0: 570f abbd 5853 aebd 0a47 e0bd f966 02bd
000000d0: 0507 4cbc 055b 98bd 8451 fabd 528f 8cba
000000e0: ebc4 43bc 1946 f9ba d6ba 2abc 1458 d6bd
000000f0: 19d7 85bd abaf 523b 2be9 b9bc 72c0 203c
00000100: 9324 c0bc a670 87bd d890 e8bc 6079 d0bd
00000110: 3a5f f2bd bd4c 27bc 9986 acbd 422a f2bc
00000120: e23f 8cbd 6124 b8bc 6daa 93bd 61cc 66bd
00000130: 7480 973b 422b 1dba d8f4 20bd 86d2 833b
00000140: 30b1 393c 11c3 24bd 75dd dabd 1e68 19bb
00000150: cc06 b4b9 546b 323b 5b91 6abd 2dc9 36bd
00000160: 4ab6 8bbd 831f 98bd e385 68bd 3e3e eabc
00000170: bf78 9ebd 96e9 3dbd 92f5 2dbd 7c7b 6dbd
00000180: 8bcb f3bc cd48 9cbd fb8d 87bd de8c e3bd
00000190: be32 94bd 5e26 67bd ed77 a2bd b4a0 8cbc
000001a0: 088e f53b 8cd4 a5bd 0972 78bd 1aad d6b9
000001b0: 106e 5bbc b16b 433c 5da2 92bd 07fa a2bd
000001c0: e178 a3bd af1d 4ebc d817 e2bc 33ed cdbd
000001d0: 3fd6 8fbd aff5 82bd 93fc 0abc 60b7 edbd
000001e0: 0f19 c8bd af86 46bd 365c 54bb 6cea 663c
000001f0: 20c9 dbbd a580 77bb ce84 44bd 4d6b 99bd
00000200: 9907 62bd f43f 88bd 3df5 8ebd ee0c 5abd
00000210: ba3b 22bd 8b89 97bd c969 84bd 61a0 9abc
00000220: d875 34bd 584e 39bd 4cd9 ca3b a4d9 cabd
00000230: f704 34bd 8e3e f6bd ff8d c63b 4d1c 31bd
00000240: 8f31 a4bd 6c35 69bd 72dc 3c3c 2f58 36bd
00000250: 7ec8 e7bd 6fa4 c13a 7ccd c5bd 07c1 873c
00000260: 84b2 42bb 52bd 08bd f82a 6abd 8bb7 603b
00000270: 97dd a2bc 9275 963c 2622 a53c 3e47 5ebd
00000280: a013 d6bc 1d51 b0bd ca38 c139 46a5 debd
00000290: 30e8 debc d7d8 0dbc ad0a 7ebd cf6c dfbd
000002a0: 0eae 84bc a692 dfbd 184a f63b fb1a 17bd
000002b0: 8cd7 83bd ea95 cebb 1c81 6ebd 3631 61bd
000002c0: a4ac b5bd 7082 f3bd df4b cfbd 68ce 82bd
000002d0: 0050 59bd 8bd5 97bc d32c ce3b 347d e73b
000002e0: 3245 eabd f4f6 4ebd bcaf 71bc 9538 d6bd
000002f0: b1ea 57bd 6ae8 1f3c 8309 2fbd f3f8 b5bd
00000300: 6cfe cabd 62d7 c2bd b5d9 93bd f93e bfbd
00000310: 9ded 95bd 158f 51bd ec84 95bd 9570 43bd
00000320: 5ffa 1fbd 88e3 16bd 25a2 0cbd 4dd7 28bd
00000330: bbee 3abd 155b 8bbd d553 a9bd 198d ffbc
00000340: ebc4 89bd 127f b2bd b091 9fbc 29fb 84bb
00000350: 023f 1abc 8d0d c93b e6a7 403c 40eb 0ebd
00000360: 108f 5abd bf0a 45bd 719b b3bd 17a1 433a
00000370: 2905 fdbc 9d46 163c da2b abbc c8cb b1bd
00000380: 07e9 5ebd 1a45 debd c676 bebc dccd 16bd
00000390: c35a 353c c915 83bc 9add 9dbd 32f1 0abc
000003a0: 7826 9bbd ceb9 8bbd 3d55 72bd 3802 45bd
000003b0: 9ba6 1e3c 9b15 e4bd 2ba0 2abd 73f1 febd
000003c0: 366f 503b 70bd 1dbc 78df 7e3c 562f c3bd
000003d0: 2d70 11bc 1024 dabd 295b 3abd 5778 6d3c
000003e0: deb8 a6bc 9e09 a4bd b47b cebc 71d9 d5bc
000003f0: 7b45 e0bd dfa3 acbd 6d08 f539 c5ff 9fbd
0.0026450597 -0.028325034 -0.09241517 -0.016328597 -0.060021494 -0.05612375 0.012005497 -0.114861116
-0.008935726 -0.078946255 -0.08991672 -0.06288862 -0.022142671 -0.023644088 -0.018611778 -0.087433204
-0.008667997 -0.021451902 0.015991542 -0.026094541 -0.02077729 -0.054616857 -0.014512033 -0.022297028
-0.006238032 -0.04976938 -0.022831295 -0.09804712 -0.008710095 -0.08165114 -0.0033814837 -0.052127678
-0.11426518 -0.03625935 0.004761592 0.0023734188 -0.06100243 0.0047438145 -0.10187305 0.01902009
-0.07571074 -0.11358835 -0.040850084 -0.09151803 -0.025214076 -0.09974249 -0.0054073064 -0.022647114
-0.08352535 -0.0851199 -0.109510496 -0.031836484 -0.012452845 -0.074392356 -0.12222579 -0.0010723865
-0.011948804 -0.0019018083 -0.010420522 -0.10466018 -0.06535167 0.0032148163 -0.022694191 0.009811508
-0.02345494 -0.06613283 -0.02838938 -0.101794004 -0.11834569 -0.010211167 -0.0842411 -0.029561166
-0.06848122 -0.022478284 -0.072102405 -0.056347255 0.004623467 -0.00059955206 -0.039296 0.004022899
0.011333749 -0.040225092 -0.10686771 -0.0023408006 -0.0003433734 0.0027224617 -0.057267528 -0.04462545
-0.06821878 -0.074278854 -0.05676831 -0.028594133 -0.07737874 -0.046365343 -0.042470522 -0.057979092
-0.029760143 -0.07631073 -0.066188775 -0.11110853 -0.07236241 -0.056433074 -0.0793303 -0.017166473
0.007493738 -0.08097181 -0.060655627 -0.00040946231 -0.01339294 0.011927531 -0.071598746 -0.07957845
-0.0798204 -0.012580319 -0.02759926 -0.10055008 -0.07023286 -0.06394517 -0.00848307 -0.11607242
-0.097704045 -0.048468288 -0.0032403595 0.0140939765 -0.10731721 -0.0037765887 -0.047978215 -0.07491169
-0.055183027 -0.06652823 -0.06980369 -0.053234987 -0.03960774 -0.07399281 -0.064654894 -0.018875303
-0.044057697 -0.04524073 0.0061904546 -0.09904793 -0.043950047 -0.1202365 0.0060594077 -0.04323988
-0.08017265 -0.056935713 0.011527168 -0.044517692 -0.11317538 0.0014773736 -0.09658334 0.016571535
-0.0029708454 -0.033383675 -0.057169884 0.0034289088 -0.019881053 0.018366609 0.020157885 -0.05426716
-0.026132405 -0.08609221 0.0003685414 -0.10871367 -0.027210325 -0.008657656 -0.0620219 -0.109094255
-0.016196277 -0.10916643 0.007516157 -0.036890965 -0.06437597 -0.0063044922 -0.058228597 -0.05497857
-0.08870819 -0.11890113 -0.10121893 -0.06387025 -0.05305481 -0.018534442 0.0062919646 0.007064486
-0.11438979 -0.05052848 -0.014751371 -0.10460011 -0.052714054 0.009760002 -0.04273368 -0.08885374
-0.09911808 -0.09513737 -0.07219259 -0.09338183 -0.07320712 -0.051161844 -0.073007435 -0.04771479
-0.03905713 -0.036838084 -0.03433432 -0.04122095 -0.045637827 -0.06804482 -0.08267943 -0.03119521
-0.06727012 -0.08715643 -0.019478649 -0.004058261 -0.009414436 0.0061356486 0.01175878 -0.03489232
-0.05335909 -0.04810595 -0.087698825 0.0007462664 -0.03088625 0.009172109 -0.020894933 -0.08681446
-0.05442145 -0.10853024 -0.023249995 -0.036817417 0.011069003 -0.016001599 -0.07708283 -0.008480357
-0.07575697 -0.06822549 -0.05916332 -0.04809782 0.0096832765 -0.111369334 -0.041656654 -0.124483965
0.0031804568 -0.009627685 0.015556209 -0.09530513 -0.008876842 -0.106514096 -0.045497093 0.014494023
-0.020351823 -0.08009647 -0.02520547 -0.02610466 -0.10950752 -0.084296934 0.0004673632 -0.07812456

conv2.bias f4 [10]
00000000: e639 05bf 3285 7b3c 29c2 3dbe fefc e0be
00000010: a928 093f 770d bcbe 399f d2be e113 02be
00000020: ea5a 9e3d 851f 83be
-0.5204147 0.01535158 -0.18531097 -0.43943018 0.5357767 -0.36729023 -0.41137102 -0.12702896
0.07732184 -0.25609985

conv2.lin.weight f4 [10, 64]
00000000: 2433 de3c 7d1f 3539 6c28 dbbd 39b1 41be
00000010: 1a21 303c 7a98 043f cd52 f43d 9f90 29be
00000020: f3ba 5f3d e1f8 dc3e d42c debe 1720 083c
00000030: 0bae 913b 275f 45bf 42fd 013c 6e13 c3bb
00000040: 0aa7 8536 03c8 0abc 4ebd 97bd c2ef e33e
00000050: ecab f5ba 0a57 eebd 64da 46bc 53ad d83d
00000060: 2fbd a03d 789c e6be 83fb 933d b137 b73d
00000070: af92 883e ca48 9bbd 9369 21bc 7755 8ab5
00000080: 4332 a53d a0a8 12b8 437b 32bd a196 26be
00000090: 6ed4 44bc 54b0 f33d fb3a 043d 4dce 6c3e
000000a0: 78b2 1cbd 038a 76bf dce6 d9be 4042 9538
000000b0: 0f27 5dbd 6b5a 92bd 3eb8 c1b7 88cd ddb5
000000c0: 41d0 013e bf70 56bb 5462 30be 9ea0 6ebf
000000d0: 7438 fd3c d495 85b7 fbf6 4b3e 786e 11be
000000e0: 28d1 473b bb32 25be ad6c e7bd 7764 723e
000000f0: 7a69 313e 05d3 1abd 353d 253e 50db 8e3d
00000100: 4607 afbd fd3a b3ba e39f 103c 4e06 d13d
00000110: 56b7 343c 5941 b43e d7a3 973e 4ee7 4bbe
00000120: 8e66 0c3e 0d07 87bd ce1f 113e d1c1 183a
00000130: 56e8 c7bd cca3 bebe 60dc 6dbc ae1b fc37
00000140: a0f4 2cb7 55d5 4138 94d8 2c3d 26b0 1dbe
00000150: 4eae 433d 61bf c3bd ecf7 a2bd 839f 983d
00000160: f418 373e d5e1 2bbe c3f6 1c3c fb1a 463e
00000170: f7a9 2c3e fb96 3735 243d 02bb 7034 da35
00000180: c850 a73d 20d8 2a3a 2023 91bc 77fd 553e
00000190: a0ee 5e3e 7936 4bbe 342a c9bc 9cee 85bc
000001a0: 59ae 20bd 63bb 483f ea89 dd3e f0d6 04b7
000001b0: 3317 4e3d b411 57bc 3a36 a2b6 f26e bab6
000001c0: 782f f43a d05d fb3d 02a7 11be 6c64 823e
000001d0: 91f9 5b3d 9083 e73b 6f75 b13d 06c3 bd3d
000001e0: 9ea8 5736 9ec4 583e 29a2 0bbe 04ee ffbe
000001f0: 80e6 64be 7e2c b83b fedd 07be 696a 4f3e
00000200: c546 53bd 0590 1f3a c099 fb3d 4954 313e
00000210: 024b d5bd 465f ca3e 1a1d aabd de72 f7bd
00000220: 051a 103e 872c 8d3e 57ff c4be d584 1e3e
00000230: 0174 1ebe 0a7f a1be 3cd4 c5bc f4f8 f037
00000240: 9a73 a237 9b0e 14b9 b0fb 9ebc e493 b63e
00000250: b11a b135 3374 91bc 1635 b9bd b3e3 af3d
00000260: 93bf 02be 2887 303e 0810 3cbd d570 e43d
00000270: d869 eb3d 71cf f63c e944 e7b9 9288 0eb7
00000280: a90e b6bb 3f32 50b7 217c 2c3e 7727 43be
00000290: 3fa8 24be 2347 af3e 38c8 e7bd 92a0 ecbc
000002a0: 9bc7 9bbd 3f00 82bf 5d44 dbbe e2ec 33b5
000002b0: b7b9 14bd c6fd 74be 2449 69b8 9384 8236
000002c0: 9ea5 0dbd 65f0 37be feb4 98bd 4856 b43e
000002d0: 32ed ef3a 9812 043d b508 223e 6a5a 8e3d
000002e0: c891 743d 3765 923e 00b5 46be 3d0d 18bf
000002f0: 70dc 2ebf 5e99 01be 87a9 55be aeca 21be
00000300: 25c4 4f3c a34f 0538 3a96 0bb8 c71e 033e
00000310: 37eb 23bc 93ab f83e eb1a 00bf 7c61 c13b
00000320: f068 133e a864 5b3e 3335 8fbe a997 433b
00000330: 0154 abbb ab44 523f 5d6f 633d 5460 3437
00000340: e62d 1c36 90cd c2b8 20f7 01be b094 833d
00000350: 722c 9cb6 d209 a4bc 22b8 72bc 0c1f 36bd
00000360: a23c ef3d a16c 90be 069d ee37 e917 c5bd
00000370: 5bdf 2dbe da76 ffba 7f23 56b7 3c48 e534
00000380: a8d1 a2b7 d5a0 8eb6 3fd9 d93d d448 6b3e
00000390: 0594 4abc e051 8bbe 3288 c2bd 42a4 f8bc
000003a0: f540 05be 7758 34bf ec93 dc3d 717d 5837
000003b0: d0e4 88be 4b11 2cbe a2e8 e8b5 5667 cbb5
000003c0: 297a 11be c450 273e 07f2 9fbc c894 06bf
000003d0: 39bb 983a 3e67 fe35 e337 d6bd 6ef6 d5b9
000003e0: d01f 573d 86ec 873c 6082 e3bd 9ffb 063f
000003f0: 9071 983e 3768 d8bd 410d 403d cb3d 0bbe
0.027123995 0.00017273235 -0.10701069 -0.18915261 0.0107500795 0.5179516 0.119298555 -0.16559075
0.054621648 0.4315863 -0.43393576 0.008308432 0.0044457964 -0.77098316 0.0079339165 -0.005953244
3.983155e-06 -0.008470538 -0.07409154 0.44518858 -0.0018743253 -0.11637695 -0.012137029 0.10579934
0.07848584 -0.4504125 0.072257064 0.08946169 0.2667441 -0.07582243 -0.009851831 -1.0306675e-06
0.08066227 -3.4966157e-05 -0.043574583 -0.16268398 -0.012013538 0.11898866 0.03228281 0.23125573
-0.03825614 -0.9630434 -0.42558944 7.117214e-05 -0.053992327 -0.07146152 -2.3093187e-05 -1.6525601e-06
0.12677099 -0.003272101 -0.17225009 -0.9321383 0.030910708 -1.5924605e-05 0.19918434 -0.14202297
0.0030489657 -0.16132633 -0.11300025 0.23671137 0.17325392 -0.0377989 0.1613663 0.06975424
-0.08546309 -0.0013674196 0.008827182 0.10206281 0.011030039 0.35206106 0.29617187 -0.19912454
0.13710997 -0.06593142 0.14172289 0.0005827221 -0.097611114 -0.37234342 -0.0145178735 3.005363e-05
-1.0308955e-05 4.6213467e-05 0.042198732 -0.15399227 0.04777365 -0.09557987 -0.079574436 0.074522994
0.17880613 -0.16785367 0.009580317 0.1934623 0.16861711 6.839252e-07 -0.0019872868 1.6257527e-06
0.08169705 0.00065171905 -0.017716944 0.2089747 0.21770716 -0.19844998 -0.024556257 -0.01634913
-0.03922877 0.7841093 0.43269283 -7.917857e-06 0.050315093 -0.013126779 -4.834289e-06 -5.5561477e-06
0.001862987 0.12273753 -0.14223865 0.2546724 0.053704802 0.007065244 0.08664977 0.092657134
3.2135645e-06 0.21168754 -0.13636078 -0.4998628 -0.22353554 0.0056205383 -0.13268277 0.20255436
-0.051581163 0.0006086829 0.12285185 0.17317308 -0.10414697 0.39525813 -0.08306332 -0.12082456
0.14072426 0.27573034 -0.3847606 0.15480359 -0.1547394 -0.31542236 -0.024149053 2.8726157e-05
1.9365736e-05 -0.00014119821 -0.019407123 0.35659707 1.3195296e-06 -0.017755603 -0.090433285 0.08588352
-0.12768392 0.17239058 -0.045913726 0.111543335 0.114947975 0.030128213 -0.00044111095 -8.495657e-06
-0.005555947 -1.2409465e-05 0.16844226 -0.19058023 -0.16079806 0.3423396 -0.113174856 -0.02888516
-0.07606431 -1.0156325 -0.42825595 -6.7027406e-07 -0.036309924 -0.23924932 -5.5619646e-05 3.8897356e-06
-0.034581773 -0.17962797 -0.074563965 0.35222077 0.0018304943 0.032244295 0.15823634 0.06950839
0.05970934 0.28592846 -0.19404984 -0.593952 -0.6830511 -0.12656161 -0.20865451 -0.15799972
0.012681042 3.178384e-05 -3.3280092e-05 0.1280471 -0.01000481 0.485684 -0.50041074 0.0059015136
0.14395499 0.21425116 -0.27970275 0.0029845035 -0.00522852 0.8213603 0.055526126 1.0751264e-05
2.3272528e-06 -9.28893e-05 -0.12691927 0.06424844 -4.6543364e-06 -0.020024214 -0.0148144085 -0.044463202
0.11681487 -0.28207877 2.844493e-05 -0.09623701 -0.16979735 -0.0019490377 -1.2763659e-05 4.270713e-07
-1.9409534e-05 -4.250653e-06 0.106371395 0.22977 -0.012364392 -0.27210903 -0.094986334 -0.030351762
-0.1301306 -0.70447487 0.10770401 1.290381e-05 -0.2673707 -0.16803472 -1.7353052e-06 -1.5154753e-06
-0.14206757 0.16339403 -0.019524587 -0.5257077 0.0011652476 1.8954522e-06 -0.10459878 -0.0004081013
0.052520573 0.016592275 -0.111088514 0.52727693 0.2977414 -0.105667524 0.04688764 -0.13597791
